FYP_1/Quantum_Approach/SEED_Approach/best_model_01.pth (torch, 7682 bytes, 5 tensors)

pre_quantum.weight f4 [4, 324]
0	0xbc031df0	-0.008002743
1	0x3c13a984	0.009012584
2	0xbc3eb01c	-0.011638667
3	0xbc007f5c	-0.007842865
4	0x3d300cb1	0.042980853
5	0xbd2fffa9	-0.042968426
6	0xbd263e94	-0.040587023
7	0xbcf29d67	-0.02961607
8	0x3d1ee9c3	0.03879715
9	0x3d28237b	0.04104946
10	0x3cef7dfa	0.029234875
11	0x3d2f89af	0.042855915
12	0x3d25bf77	0.0404658
13	0x3d27ee43	0.04099871
14	0xbd10bbb9	-0.035335276
15	0xbccafc19	-0.024778413
16	0x3c53e32c	0.01293258
17	0x3bf9f1e8	0.0076277144
18	0x3c847b42	0.016172055
19	0xbd3cf4ab	-0.04613177
20	0x3d4adf3f	0.04952931
21	0x3d40db31	0.047084037
22	0xbc0006c8	-0.007814117
23	0xbcc5cb7c	-0.02414488
24	0xbd0acb14	-0.033885077
25	0x3c3c8ecc	0.011508655
26	0xbc9048dc	-0.017612867
27	0x3c86018a	0.016358156
28	0xbc14f510	-0.009091631
29	0x3d395003	0.04524232
30	0x3cb5961a	0.0221663
31	0x3c14914c	0.009067845
32	0x3d01fa61	0.03173292
33	0xbd3c65f6	-0.045995675
34	0xbc97c8c8	-0.018528357
35	0x3cdbb80a	0.026821155
36	0xbcf01c04	-0.029310234
37	0x3d003ac5	0.031306047
38	0x3ce94c8a	0.02847888
39	0x3d4b1db3	0.04958887
40	0x3d08ca01	0.03339577
41	0x3bd51928	0.006503243
42	0xbc53c610	-0.01292564
43	0xba82f520	-0.0009991266
44	0xbc04a000	-0.008094788
45	0x3cfa0c12	0.030523334
46	0xbbe22f20	-0.0069025904
47	0x3c11b22c	0.008892577
48	0x3d171cc1	0.036892656
49	0x3bd0ecd8	0.00637589
50	0x3d1112a1	0.035418157
51	0xbd26e719	-0.040747736
52	0xbc0cba40	-0.008589327
53	0xbcffa387	-0.031205906
54	0x3cfeb33a	0.031091321
55	0x3d5bca61	0.0536598
56	0x3c76dccc	0.0150672905
57	0xbbe5ca90	-0.0070126727
58	0xbd2d48b6	-0.04230567
59	0x3bffa908	0.0078021325
60	0xbd050cb0	-0.032482803
61	0x3b275db0	0.002553802
62	0xbcc74dae	-0.024329033
63	0xbd3169e2	-0.04331387
64	0x3d2174a5	0.03941788
65	0xbad3d320	-0.0016160943
66	0x3c13c88c	0.009019982
67	0xbd2fa500	-0.042881966
68	0x3d11b7c9	0.03557566
69	0xbc53bc38	-0.012923293
70	0xbcca783d	-0.024715537
71	0xba9a9dc0	-0.0011796281
72	0x3d35d131	0.044388954
73	0xbd36a7e6	-0.044593714
74	0xbca8debc	-0.02061402
75	0xbd44703b	-0.047958594
76	0x3cd5b846	0.026088845
77	0xbd2f665b	-0.042822223
78	0xbb93b120	-0.004507199
79	0xbcf6c57d	-0.030123467
80	0xbcd3e6e0	-0.025866926
81	0xbc919ff8	-0.017776474
82	0xbd0f361e	-0.03496372
83	0x3b945320	0.004526511
84	0x3cdbcb56	0.026830357
85	0xbd3cf6cc	-0.0461338
86	0x3c988ce2	0.018621866
87	0xbd49fae0	-0.04931152
88	0xbcb12144	-0.021622308
89	0xbd610617	-0.05493745
90	0x3d3936ef	0.045218404
91	0x3c9631be	0.018334266
92	0xbcb7c356	-0.02243201
93	0x3c00f5d4	0.00787111
94	0x3c5657cc	0.013082456
95	0xbd34eeb0	-0.044172943
96	0x3c465544	0.01210529
97	0x3d24cb05	0.040232677
98	0x3d49ae07	0.04923823
99	0xbd3adcfe	-0.04562091
100	0x3c65b864	0.014021013
101	0xbcc00f8a	-0.02344491
102	0x3b067000	0.0020513535
103	0xbd057827	-0.03258529
104	0x3ae44380	0.0017415136
105	0xbd09eae4	-0.033671275
106	0x3cb4f156	0.022087734
107	0x3d0727a7	0.0329968
108	0x3d03112b	0.031998795
109	0x3c145a24	0.009054694
110	0xbd0c701c	-0.034286603
111	0x3d5f9c81	0.054592613
112	0xbd2f02cb	-0.042727273
113	0x3d1c2383	0.038119804
114	0x3d217c8d	0.03942542
115	0x3d19408f	0.037415083
116	0xbb307170	-0.0026923083
117	0x3cea0012	0.028564487
118	0xbced0af5	-0.028935889
119	0xbd056664	-0.03256835
120	0xbd3f55e4	-0.04671277
121	0x3bf6e5e8	0.007534731
122	0xbbf784d8	-0.007553678
123	0xbc4bfa78	-0.012449853
124	0xbd13650e	-0.035985045
125	0xbc86d016	-0.016456645
126	0x3ca2da9a	0.019879628
127	0x3ce9e4fe	0.028551575
128	0x3d12e8b5	0.035866458
129	0xbd502810	-0.050819457
130	0x3cb7b622	0.022425715
131	0xbd2906de	-0.041266315
132	0x3d25edab	0.04050986
133	0x3c74b0dc	0.014934745
134	0xbd2c7444	-0.042103067
135	0xbcc8e764	-0.024524398
136	0x3d4625c1	0.04837585
137	0x3d0f26d3	0.034949135
138	0x3cbd3ec6	0.023101222
139	0x3d4bb379	0.049731705
140	0xbc7fcdd0	-0.015613034
141	0xbd3c256b	-0.045934122
142	0x39f56b80	0.00046810135
143	0x3c6b458c	0.014359843
144	0xbcaf4bfc	-0.021398537
145	0x3d368f27	0.044570114
146	0x3d152def	0.03642076
147	0xbc2079dc	-0.009794679
148	0xbc353148	-0.011059113
149	0x3cc446f6	0.023959618
150	0xbccbdbb9	-0.024885045
151	0x3b286e70	0.0025700592
152	0x3cbc6946	0.022999417
153	0x3cda2192	0.026627336
154	0x3d1a3031	0.037643615
155	0x3d6020c1	0.054718737
156	0xbd60cc05	-0.05488207
157	0x3d3b758d	0.045766402
158	0x3cb988e2	0.022648279
159	0xbd555439	-0.052082274
160	0x3c6b68ec	0.014368277
161	0xbcf1d0b9	-0.029518472
162	0xbd62432b	-0.055239838
163	0xbd0061a0	-0.031343102
164	0xbc95cd48	-0.018286362
165	0xbcf278f2	-0.029598687
166	0x3c52499c	0.012834933
167	0xbd176590	-0.036962092
168	0x3c9798ee	0.01850554
169	0xbcde0e07	-0.027106298
170	0xbc4223f8	-0.011849396
171	0xbc152ad0	-0.009104446
172	0xb9b90700	-0.00035291165
173	0x3d26f43d	0.040760268
174	0x3cf0191a	0.029308844
175	0xbd4a11c5	-0.049333353
176	0xbb8e8538	-0.004349377
177	0xbd29fa64	-0.041498557
178	0x3d4d1bd5	0.05007537
179	0x3d630041	0.055420164
180	0xbcb7268a	-0.022357244
181	0x3d44c405	0.0480385
182	0xbd570995	-0.052499373
183	0x3c4fe434	0.012688685
184	0xbcab8128	-0.02093561
185	0x3b4f3800	0.0031619072
186	0xbb96cf38	-0.004602339
187	0xbd076079	-0.033050988
188	0xbc5a2700	-0.013314962
189	0xbce9da4e	-0.028546479
190	0xbd37bac0	-0.044855833
191	0xbc0548b8	-0.008135013
192	0xba4ab900	-0.00077332556
193	0x3d376b21	0.0447799
194	0xbc55a488	-0.013039716
195	0x3d3082d3	0.043093514
196	0xbd3b4b60	-0.04572618
197	0x3cc272ea	0.023736436
198	0x3d56ed19	0.052472208
199	0x3cacb26a	0.021081168
200	0xbb9e6dd8	-0.0048348717
201	0xbc8e4860	-0.017368495
202	0x3a0e19c0	0.0005420707
203	0xbd073959	-0.033013675
204	0xbc1c0300	-0.0095222
205	0x3a8f20e0	0.0010919832
206	0xbd1b70ca	-0.03794936
207	0xbbcb9da8	-0.0062138624
208	0xbd4d3c42	-0.050106294
209	0xbd50e78c	-0.05100207
210	0x3d5c0c75	0.053722817
211	0x3d02cf27	0.031935837
212	0x3d2c5ccd	0.04208069
213	0xbad4eaa0	-0.001624424
214	0x3d26089f	0.040535565
215	0x3d4299e1	0.04751003
216	0xbcb32de0	-0.02187246
217	0x3b387950	0.002814848
218	0x3d29e119	0.041474435
219	0xbc212854	-0.009836275
220	0x3b1eaa20	0.002421029
221	0xbd1def92	-0.03855855
222	0x3bdd1a60	0.006747529
223	0xbd20b6c9	-0.039236818
224	0x3af55b60	0.0018719248
225	0x3c28d0ac	0.0103036575
226	0x3bf34088	0.007423464
227	0x3d616223	0.05502523
228	0xbcdec447	-0.027193202
229	0xbd12a31a	-0.035800077
230	0x3d557fed	0.052123953
231	0x3d21cdb9	0.039502833
232	0xbbef19a0	-0.007296756
233	0x3d222d7b	0.039594155
234	0xbd1f05b4	-0.0388238
235	0x3cb36e02	0.021903042
236	0x3bc53400	0.006018162
237	0x3d342641	0.043981794
238	0xbd5e8a5d	-0.054331172
239	0xbbe81258	-0.007082265
240	0xbd2ea1c4	-0.04263474
241	0x3d485a53	0.048914265
242	0xbcc520a0	-0.024063408
243	0x3b1b7790	0.0023722388
244	0xbd5838f5	-0.052788693
245	0xbc83a1aa	-0.016068298
246	0xbcac48bc	-0.021030776
247	0xbd30c252	-0.04315407
248	0x3cd3c6c6	0.025851618
249	0xbca74896	-0.020420354
250	0x3d58125d	0.052751888
251	0xbd2cc726	-0.04218211
252	0xbc719aa4	-0.014746342
253	0xbd1db5ca	-0.038503446
254	0x3d3953b7	0.045245852
255	0x3d134fc7	0.035964753

pre_quantum.bias f4 [4]
0	0xbcd97327	-0.026544167
1	0xbd5dc0b2	-0.054138847
2	0x3be88128	0.0070954747
3	0xbd1579ce	-0.036493115

quantum_layer.weights f4 [3, 4]
0	0xbff0ee71	-1.8822767
1	0xbf52a9c5	-0.822903
2	0x3f018bdc	0.50604033
3	0xbf06a466	-0.525946
4	0xbccfeb6c	-0.025380813
5	0xbfbd9b44	-1.4813008
6	0x3ddac73e	0.10682534
7	0x3e8023af	0.25027224
8	0x3fb745a8	1.4318132
9	0xbe94981f	-0.2902231
10	0x3f4e7f2f	0.80662817
11	0x3ecbed6c	0.39829576

post_quantum.weight f4 [3, 4]
0	0xbfa6468a	-1.2990277
1	0xbdcd983d	-0.10038803
2	0xbdceec35	-0.10103647
3	0xbdc07c4c	-0.09398708
4	0xbf75cd1f	-0.96016115
5	0x3d515f95	0.051116545
6	0xbe9d3d5b	-0.30710873
7	0xbd0e0d32	-0.034680553
8	0x3f9a2ad3	1.2044319
9	0x3e88c52c	0.2671293
10	0xbe82e2a0	-0.25563526
11	0x3ea8f937	0.33002636

post_quantum.bias f4 [3]
0	0xbe2219ae	-0.15830109
1	0xbd65fe89	-0.056150947
2	0x3d95bacf	0.073110215
