Quantum_Approach/SEED_Approach/best_model_02.pth (torch, 7682 bytes, 5 tensors)

pre_quantum.weight f4 [4, 324]
0	0xb9f77700	-0.00047200173
1	0x3c8d78e2	0.017269555
2	0xbcd38cd5	-0.02582399
3	0xbc144c30	-0.009051368
4	0xbc215808	-0.009847648
5	0xbbc57f38	-0.0060271285
6	0x3d19f857	0.03759035
7	0x3b3ee250	0.0029126592
8	0x3d0f3bd3	0.034969162
9	0xbd3b0ade	-0.04566466
10	0x3ce98712	0.02850679
11	0x39e2d700	0.00043266267
12	0x3c545c84	0.012961511
13	0x3d3b6261	0.04574812
14	0x3cfab5ae	0.03060421
15	0xbcb55cae	-0.02213892
16	0x3b92a658	0.004475396
17	0x3d5d5f91	0.054046217
18	0xbcb2d12e	-0.02182826
19	0x3d2c1095	0.042008
20	0x3ce3efce	0.027824309
21	0x3d382de1	0.04496563
22	0xbb163340	-0.002291873
23	0x3d59d681	0.053183082
24	0x3cc68c7e	0.024236914
25	0xbcfa7779	-0.030574547
26	0xbd226c89	-0.03965429
27	0x3cef7dea	0.029234845
28	0x3c218e44	0.009860579
29	0x3acdb160	0.0015693121
30	0x3ce4fa6a	0.027951438
31	0x3c8d745a	0.017267395
32	0xbd30eb80	-0.04319334
33	0xbd4fde2c	-0.05074899
34	0xbc7ee508	-0.015557535
35	0xbb7e2d20	-0.003878422
36	0xbbc1d890	-0.005915709
37	0x3c4f2e0c	0.012645256
38	0x3cfd9966	0.030956935
39	0xbc64976c	-0.013952117
40	0xbcf1c744	-0.029513963
41	0x3d27724f	0.040880498
42	0xbd52e700	-0.05148983
43	0xbd515dde	-0.05111491
44	0xbcff467d	-0.031161541
45	0x3d226e4f	0.03965598
46	0xbd1c1569	-0.038106356
47	0x3cfe3cb2	0.031034801
48	0xbd51bcfe	-0.051205628
49	0x3d13a9c5	0.036050577
50	0x3d381a63	0.04494704
51	0xbc44c048	-0.012008734
52	0x3d29c6a5	0.041449208
53	0xbd1aadaa	-0.037763275
54	0x3d409fa1	0.047027234
55	0x3d2b6e29	0.041853104
56	0x3ca72abe	0.020406123
57	0xbd3e72ee	-0.046496324
58	0xbd56cc59	-0.052440975
59	0x3c2c04dc	0.010499205
60	0xba30c9c0	-0.000674393
61	0xbd432567	-0.04764309
62	0xbca31d24	-0.019911356
63	0x3c34923c	0.011021193
64	0x3d3cb2a7	0.046068814
65	0xbd4afa4b	-0.049555104
66	0xbc64ed6c	-0.013972621
67	0x3ca97792	0.020686898
68	0xbca34156	-0.019928616
69	0xbbf01b60	-0.007327482
70	0xbccd7839	-0.02508174
71	0xbbf4c680	-0.007469952
72	0xbd05c459	-0.032657955
73	0x3d340a83	0.043955337
74	0xbc9c22fc	-0.01905965
75	0xbd1a2732	-0.037635036
76	0x3cae992e	0.021313276
77	0x3cdf1da2	0.02723581
78	0xbd1094f2	-0.035298295
79	0x3d60c3e5	0.05487432
80	0x3d578569	0.052617464
81	0xbc6b67b8	-0.01436799
82	0x3cde5c2a	0.027143557
83	0x3d1070f7	0.03526398
84	0xbd164224	-0.03668417
85	0xbd2956f9	-0.04134271
86	0xbd318616	-0.043340765
87	0x3bef7398	0.007307481
88	0x3b5f9c90	0.0034120418
89	0xbd484ed4	-0.0489033
90	0x3b5887e0	0.0033039972
91	0x3c9283be	0.017885085
92	0xbd40abb0	-0.047038734
93	0x3c8fef4e	0.017570164
94	0x3b323a40	0.0027195364
95	0xbc673cf0	-0.01411365
96	0x3b8420a8	0.0040322132
97	0x3c305824	0.010763202
98	0x3d3fed21	0.046857003
99	0x3cb5d3a2	0.022195641
100	0x3d562847	0.052284505
101	0x3d33e131	0.04391593
102	0xbd346d4e	-0.044049554
103	0x3d21e001	0.039520267
104	0x3cbab04a	0.02278914
105	0xbc8a7898	-0.016903207
106	0xbd2491ab	-0.040177982
107	0xbcd43375	-0.025903443
108	0xbd00615e	-0.031342857
109	0x3d2e00bd	0.042481173
110	0x3cb8e062	0.022567932
111	0x3cff9022	0.031196658
112	0x3d5cdd57	0.053922024
113	0xbc95fd04	-0.018309124
114	0xbd3a7c72	-0.045528837
115	0x3d3623d1	0.04446775
116	0x3c32b1ec	0.010906678
117	0x3c6b41fc	0.014358994
118	0x3ca5d602	0.020243648
119	0xbd0d3847	-0.0344775
120	0x3caa5f06	0.020797264
121	0xbc1ca49c	-0.00956073
122	0xbd20f632	-0.03929729
123	0xbd278629	-0.04089943
124	0x3c20d234	0.009815741
125	0xbd50fb14	-0.051020697
126	0xbc750788	-0.014955409
127	0xbb716de0	-0.0036839172
128	0xbd24dfdc	-0.04025255
129	0xbd60a2cb	-0.05484275
130	0x3afa6960	0.001910489
131	0xbd596eb4	-0.05308409
132	0xbca94f40	-0.020667672
133	0x3ca7a526	0.020464491
134	0x3cf5551e	0.029947814
135	0xbaca6960	-0.0015442781
136	0x3c8de2c6	0.017320048
137	0xbc2331dc	-0.009960618
138	0xbccbbe92	-0.024871144
139	0x3d30c59d	0.04315721
140	0xbc8f41d8	-0.017487451
141	0xbc29e41c	-0.010369327
142	0xbc7ff3b8	-0.015622072
143	0xbd438c12	-0.047741003
144	0x3d5945d3	0.053045105
145	0x3d52c435	0.05145665
146	0x3d3d7411	0.046253268
147	0xbcb98312	-0.022645507
148	0xbd55e1a9	-0.05221716
149	0x3d4bacf9	0.049725506
150	0xbc9ef328	-0.019403055
151	0xbac57800	-0.001506567
152	0x3d3ef3a5	0.046619076
153	0x3c37d72c	0.011220735
154	0x3c384674	0.011247266
155	0x3cf4bb62	0.029874507
156	0xbd4618b4	-0.048363402
157	0xbd096940	-0.03354764
158	0xbbc6ef70	-0.0060710236
159	0x3b2160c0	0.0024624318
160	0xba055700	-0.00050865114
161	0xbd37cc22	-0.04487241
162	0x3d000dcb	0.031263154
163	0x3cc56812	0.024097476
164	0xbd4d2970	-0.050088346
165	0x3d196875	0.037453134
166	0x3ca1c66a	0.019747932
167	0xbd2a3fd0	-0.041564763
168	0x3d15b7ed	0.03655236
169	0xbd5aabc4	-0.053386465
170	0x3d00d011	0.031448428
171	0x3b5fdac0	0.0034157485
172	0xbbb490e0	-0.0055104345
173	0x3d56f3fb	0.05247877
174	0xbcb8879c	-0.022525601
175	0xbd06609a	-0.03280697
176	0x3b5768b0	0.0032868795
177	0xbc6e8540	-0.014558136
178	0xbd33d54b	-0.043904584
179	0xbbb2eac8	-0.005460117
180	0x3cccde8e	0.025008466
181	0x3d57b771	0.052665178
182	0x3a237dc0	0.0006236695
183	0xbbd03490	-0.006353922
184	0x3cd53942	0.02602828
185	0x3d207ad3	0.039179634
186	0x3d27b37b	0.04094265
187	0xbd617447	-0.05504253
188	0x3baa8a90	0.005204506
189	0x3cc73f22	0.024322096
190	0x3d62d7f3	0.055381726
191	0x3c50835c	0.012726631
192	0xb9af7000	-0.00033462048
193	0x3c545304	0.012959246
194	0x3cd00fc2	0.025398139
195	0xbcc79eeb	-0.02436777
196	0xbca6bf76	-0.020354968
197	0x3d24d7a7	0.040244725
198	0xbd13a43e	-0.036045305
199	0xbb9d5448	-0.004801307
200	0xbca349d2	-0.019932661
201	0xbcdc7ac4	-0.026914008
202	0x3d3b8349	0.0457795
203	0xbc73bb9c	-0.0148762725
204	0x3d432249	0.04764012
205	0xbd322980	-0.04349661
206	0xbd0fb724	-0.035086766
207	0x3d16eb51	0.03684551
208	0xbd481745	-0.048850317
209	0x3c96defa	0.01841687
210	0xbcd29c0e	-0.025709178
211	0x3b484c00	0.0030562878
212	0xbba98610	-0.005173452
213	0x3c76a30c	0.015053522
214	0xbbab90b8	-0.0052357577
215	0x3d2c24ef	0.04202741
216	0xbd39f1d2	-0.045396633
217	0xbd2a22d7	-0.041537132
218	0x3d0cb575	0.03435274
219	0xbc8693bc	-0.016427867
220	0xbc387140	-0.01125747
221	0xbcc73fd9	-0.024322437
222	0xbce89687	-0.02839209
223	0xbb7ab2b0	-0.0038253479
224	0xbcb36024	-0.02189643
225	0xbc3db6b8	-0.011579208
226	0x3d4a1a5d	0.04934155
227	0x3d5487cd	0.051887322
228	0x3d5e6f41	0.05430532
229	0x3d3502fd	0.044192303
230	0x3cdedf9e	0.027206238
231	0x3c682c44	0.01417071
232	0x3d1b1817	0.03786477
233	0x3d2c5647	0.042074468
234	0xbcab8c48	-0.020940915
235	0xbb1d2bc0	-0.0023982376
236	0x3b7d2a00	0.003862977
237	0xbd407179	-0.046983216
238	0xbc83ad5c	-0.016073875
239	0x3c969e16	0.018385928
240	0xbc16531c	-0.009175088
241	0x3d547627	0.05187049
242	0xbcfbc040	-0.03073132
243	0xbc83f452	-0.016107712
244	0xbd4038f2	-0.046929307
245	0xbc8ae7a8	-0.016956165
246	0x3d43449b	0.04767285
247	0xbae8a000	-0.0017747879
248	0xbbb10428	-0.005402107
249	0x3d4a1503	0.049336445
250	0xbbedfb38	-0.0072626136
251	0xbba90b28	-0.0051588006
252	0xbcbfe772	-0.023425791
253	0x3d01a8a7	0.03165498
254	0x3c3d3cfc	0.011550184
255	0x3c2ca56c	0.0105374865

pre_quantum.bias f4 [4]
0	0xbc775a1c	-0.015097167
1	0xbd606b54	-0.054789856
2	0x3d255415	0.04036339
3	0xbca02560	-0.019549072

quantum_layer.weights f4 [3, 4]
0	0x4002fecb	2.0468013
1	0xbeb822ef	-0.35964152
2	0xbec07a8d	-0.375935
3	0x3f3cf1fd	0.73806745
4	0xbf22dab5	-0.6361497
5	0x3fa28f48	1.2699976
6	0x3fb6e7a5	1.4289442
7	0xbf836049	-1.0263759
8	0xbe248fe8	-0.16070521
9	0xc02e2085	-2.7207348
10	0x3ef4bcf0	0.47800398
11	0xbfa97720	-1.3239479

post_quantum.weight f4 [3, 4]
0	0xbde2602b	-0.11053499
1	0xbd57095d	-0.052499164
2	0xbedca8e7	-0.43097612
3	0xbf0cd74a	-0.55016005
4	0x3dd2a243	0.10284855
5	0xbd97c57e	-0.074107155
6	0xbed1a34b	-0.40944895
7	0xbe76e547	-0.241109
8	0x3d9e6135	0.077333845
9	0xbdc4b16e	-0.096041545
10	0xbe479f0f	-0.1949427
11	0xbe816482	-0.25271994

post_quantum.bias f4 [3]
0	0xbdbf91f1	-0.09354008
1	0x3d5243ea	0.0513343
2	0x3e1fab57	0.15592705
