Quantum_Approach/SEED_Approach/best_model.pth (torch, 7591 bytes, 5 tensors)

pre_quantum.weight f4 [4, 324]
00000000: 9907 e9bc d866 a8bc ad85 423d 9625 83bc
00000010: 206f f53a 0af4 f53c b695 853c 1596 e7bc
00000020: 8273 803c 115b 043d a794 623d b20a e23c
00000030: d8e5 b83b 0e71 c7bc b4a2 1a3c 9ee7 62bd
00000040: e02a e1ba a628 ec3c f26f 62bd 6ff8 3c3d
00000050: 23db 233d 0aaa da3c 20bf f8ba 3861 3bbc
00000060: 6067 80ba 541f 1a3c e2f6 b73c 99de 3dbd
00000070: 2021 ffbc a2f9 ae3c 90c9 6e3b 5b98 523d
00000080: 26ae dc3c b5bf c9bc 79ca 1cbd b109 0b3d
00000090: 5001 093b 388e a63b 048e 1d3c 34fb 0cbd
000000a0: c043 5abc 0e2c e9bc 252a 59bd 8c09 7b3c
000000b0: 0b33 4ebd 6eb8 f73c c83f afbb 9314 383d
000000c0: cde3 1a3d 1ae9 833c 89c2 3bbd a871 b5bc
000000d0: c2fe d13c 7329 5c3d 58bf b4bb 61e8 403d
000000e0: 8ce4 5d3c ac15 2fbc 2049 c33a a4f9 bbbc
000000f0: b0ea 29bb 08b5 f53b 16ef 3cbd 12cc e33c
00000100: 6cef 08bd a8c9 92bb b67b cc3c 0462 253c
00000110: 4ef7 4ebd f031 5cbd d71b 3f3d 94eb 38bd
00000120: e5d3 4abd 00a6 1ebb d214 adbc 0c70 3c3c
00000130: 85d2 47bd 7c8b 0bbd 7756 63bd e2a1 9e3c
00000140: 914a 633d 82ef cc3c 2a34 e03c aaaf b9bc
00000150: 00f5 47ba 8e17 46bd d61a 903c b417 24bd
00000160: a871 f93b b1ad 613d e819 89bc e037 af3b
00000170: 12eb 39bd 17ef 2c3d 2c6d 3ebd 54ef 0fbc
00000180: a47b adbc 8e5a a43c 75c0 e8bc e969 36bd
00000190: 8835 b2bc 0058 b639 889f 0fbc e26d c43c
000001a0: c5a3 453d 7212 d5bc 6494 683c 586a 89bb
000001b0: 92c1 30bd f941 623d ec80 67bc 24b5 56bd
000001c0: 2197 3d3d 325f d7bc 20e8 cbbc ce2f ad3c
000001d0: 908f 53bb c2dc 24bd f22c a03c c402 183c
000001e0: 27ab 16bd eee0 e13c 44c6 233c 5e51 d53c
000001f0: f518 063d b28f bf3c 79cc 2ebd b5f8 4bbd
00000200: 7b0c 2ebd b2e6 963c 0269 963c e045 02bd
00000210: 48af 8ebb 06da a73c dd20 59bd dc6d 84bc
00000220: 890c 203d 5ebc bf3c 8825 0bbc e42f 78bc
00000230: 127c f13c 7ae6 e43c 203b a33b 00cd a03b
00000240: 66f9 843c 90c6 2abd 7ada af3c a605 37bd
00000250: b8fb ff3b c21e 8a3c 2005 c9ba 2871 9e3b
00000260: e5df 60bd ba3a 08bd 48c2 c2bb 9e76 02bd
00000270: 7531 553d 228e f53c 92a0 f7bc b6ef fa3c
00000280: ac56 52bd f9da 173d 7e49 0cbd 6997 1ebd
00000290: eb7a 4f3d 95c0 5b3d c4b8 4f3c 5496 65bc
000002a0: 2f66 123d 2f55 5a3d 1cb6 483c e4ec 07bd
000002b0: e5d5 49bd 07ff 06bd 40f6 27bd dc34 4a3c
000002c0: e26a d43c 3a28 b93c e0a8 48bb d89b ad3b
000002d0: c42c 29bd 7c55 5b3c 44ce 223c 548e 603c
000002e0: 6432 45bc a5b1 563d aa80 8cbc be85 0bbd
000002f0: 0029 7739 88be 22bc 3112 533d 6e7d af3c
00000300: 70ff 093b 7e83 46bd 842d bcbc adbd 0d3d
00000310: d948 10bd e695 fd3c e431 6dbc 8906 573d
00000320: 996e 31bd f0ff d0bb 0000 a6ba 8945 33bd
00000330: 00b0 da3b 489d eb3b 0001 7fbb 78cf 8abc
00000340: f287 fa3c c00d 06bc 7711 003d 6ac8 cc3c
00000350: 0233 39bd c03a 90bc 00ef 84b9 0c71 073c
00000360: 4eb1 01bd 28c6 c5bb 1c67 6f3c 4a9e 94bc
00000370: dd0a ebbc b07b 4dbd 1e8d 54bd 5c39 6bbc
00000380: 0e27 d23c 820b ac3c 5949 063d d453 2d3c
00000390: 9cd2 4fbd 70c2 44bc be81 e63c 6e27 fcbc
000003a0: f131 1b3d a296 c43c 66aa d33c 5235 9fbc
000003b0: 40f4 5cbb ce58 dbbc ddb4 333d a0b2 dfba
000003c0: 0ed7 e9bc 1022 a33b 0231 06bd 2a1b f03c
000003d0: 33c0 133d 50a2 11bd b43e 7d3c a722 213d
000003e0: ae42 39bd 0f38 163d 112a 283d f20c 84bc
000003f0: c4e6 4abd 5137 0f3d 2ccc 573c 2b7e d9bc
-0.028446006 -0.020556852 0.047490764 -0.016009133 0.0018725134 0.030023593 0.01630674 -0.028269807
0.015680078 0.03231341 0.055317547 0.02759299 0.005642634 -0.0243459 0.0094382055 -0.05539667
-0.0017178915 0.028827976 -0.05528254 0.046135362 0.040003907 0.026692409 -0.0018977858 -0.011436753
-0.0009796433 0.009406883 0.02245659 -0.046354864 -0.031143725 0.021359269 0.0036436059 0.05141483
0.02693851 -0.024627546 -0.03827903 0.03394479 0.0020905323 0.0050828718 0.009616379 -0.034419253
-0.013321817 -0.02846339 -0.053018708 0.0153221 -0.050341647 0.03023931 -0.0053481795 0.044941496
0.037814904 0.016102362 -0.04583982 -0.022148922 0.025634173 0.053750467 -0.005515974 0.047096614
0.013543259 -0.010686319 0.0014899112 -0.022946186 -0.0025927238 0.0074983872 -0.046126448 0.02780727
-0.033431455 -0.0044796057 0.024961334 0.0100941695 -0.050528817 -0.05375856 0.04665741 -0.04514654
-0.049518485 -0.002420783 -0.021128092 0.011501323 -0.04878475 -0.03406857 -0.05550238 0.019364301
0.055491034 0.02501655 0.027368624 -0.022666771 -0.00076277554 -0.048362307 0.017590921 -0.040061668
0.007612426 0.055097286 -0.016735986 0.005347237 -0.045390196 0.0422202 -0.046490833 -0.008785088
-0.02117712 0.020062711 -0.028412083 -0.044534598 -0.021754041 0.0003477931 -0.008766063 0.023978177
0.048251886 -0.026009772 0.014195535 -0.0041935854 -0.043153353 0.055238698 -0.014129858 -0.052418843
0.046286706 -0.02629051 -0.02489096 0.02114096 -0.0032281615 -0.040249594 0.019552682 0.009278003
-0.036784317 0.027573075 0.009996001 0.026039775 0.032738645 0.023383949 -0.04267547 -0.049797732
-0.04249237 0.018420551 0.018360619 -0.03180492 -0.0043543912 0.020489704 -0.053009856 -0.016165666
0.039074454 0.02340525 -0.008492835 -0.015148137 0.029478107 0.027941931 0.0049814135 0.0049072504
0.016232204 -0.04169327 0.021466482 -0.04468312 0.0078119896 0.01686037 -0.001533661 0.0048352666
-0.054901022 -0.03325913 -0.0059435703 -0.031851403 0.05204912 0.029975 -0.030227933 0.030631881
-0.051352188 0.037074063 -0.034249775 -0.038718615 0.050654333 0.053650457 0.012678329 -0.014012892
0.03574198 0.053303894 0.0122504495 -0.0331849 -0.04927625 -0.032958057 -0.041006327 0.012341704
0.025929872 0.02260219 -0.0030618235 0.005298119 -0.041302457 0.01338708 0.009936873 0.013705809
-0.01203594 0.05241551 -0.017151196 -0.034063093 0.0002357103 -0.0099331215 0.05153102 0.021422114
0.0021056794 -0.048465244 -0.022970922 0.034604717 -0.035225723 0.030955266 -0.014477227 0.052496467
-0.043318365 -0.0063781664 -0.0012664795 -0.043767486 0.006673813 0.0071903802 -0.0038910508 -0.016944632
0.030582402 -0.008181989 0.031266656 0.024997909 -0.04521466 -0.01760614 -0.0002535507 0.008266699
-0.03166323 -0.006035585 0.014611986 -0.018141884 -0.028691703 -0.050166786 -0.051892392 -0.014356937
0.025653388 0.021001581 0.032784794 0.010579068 -0.050737962 -0.012009248 0.028138038 -0.03078052
0.037889425 0.023997609 0.025838088 -0.019434605 -0.003371492 -0.026775744 0.043873657 -0.0017066784
-0.028544929 0.004978426 -0.03276158 0.029309828 0.036071967 -0.035555184 0.015456844 0.039339688
-0.045229606 0.036674555 0.041055743 -0.016119454 -0.04953648 0.034964863 0.013171237 -0.02654942

pre_quantum.bias f4 [4]
00000000: b6d6 06bd 93dd 093d 9133 3d3d 5c8e 7cbc
-0.032919608 0.033658575 0.046191756 -0.0154148005

quantum_layer.weights f4 [3, 4]
00000000: eeed afbf 54d8 aebe a25b 09bf 36ba d83f
00000010: 7121 0abf 6667 bdbf 7254 6b3d 1b0b 333f
00000020: 8bf6 1fbf d33e 66bf 7076 96be d905 24bf
-1.3744485 -0.3414942 -0.53655446 1.6931827 -0.5395728 -1.479718 0.05745358 0.6993882
-0.6248557 -0.8993961 -0.29387236 -0.6407142

post_quantum.weight f4 [3, 4]
00000000: 64b6 263e 1116 833d 1ea0 2e3e e8cd 3a3f
00000010: eda5 303f c0ab 103f e9d2 3dbe 72c1 de3e
00000020: 65b1 04bf 1714 34be b32c cabe cf85 40bf
0.16280514 0.06400693 0.17053267 0.7297044 0.6900318 0.5651207 -0.18537487 0.43506962
-0.5183318 -0.17585789 -0.39487228 -0.75204176

post_quantum.bias f4 [3]
00000000: 67b7 33be 9438 67be 0f94 a53e
-0.17550431 -0.22580177 0.32339522
