Quantum_Approach/SEED_Approach/best_model_03.pth (torch, 7682 bytes, 5 tensors)

pre_quantum.weight f4 [4, 324]
00000000: 17d0 24bd 40cc 37bc ec1a 53bc 80d8 da3a
00000010: 580a ec3b 51fd 5c3d df06 313d 2fb7 353d
00000020: cba2 103d 0791 3d3d 30ff 29bc e2ff e33c
00000030: 7846 64bc f4a2 123c 5278 b83c 82b3 c03c
00000040: 8891 81bc f0b6 74bc ac89 2d3c d9b6 3d3d
00000050: c1f9 563d c2aa 04bd d00d 53bc 3c71 483c
00000060: b51c 403d b8f7 b9bb ae18 07bd 4009 7bbc
00000070: 5478 063c 0e75 c33c 8022 e0ba 9ebc d83c
00000080: 7c61 4dbd b2bc a63c aed9 b6bc 0bd7 053d
00000090: 5cf5 7dbc b73a 13bd 897b 1bbd 6a31 b53c
000000a0: 3260 8dbc abfb 533d 10fd 24bd 23d9 303d
000000b0: 4ef9 3fbd 7049 09bd 1eb6 4cbd 602a d83b
000000c0: ac7d 083c a75c ecbc e083 e4bb db20 233d
000000d0: 18b1 b6bc 13bd 583d 75d1 e7bc 5410 513c
000000e0: ae5f 82bc 4dc0 61bd 3ff2 2c3d 2cb8 2c3c
000000f0: ec08 3cbd 423f 32bd 74b3 2bbd 9683 bcbc
00000100: 0058 933b a480 85bc 4e66 d33c 9c06 22bd
00000110: a4af 35bd f9ca 123d 00cf 4ebb 8ef5 da3c
00000120: f5f5 55bd 178c 4e3d d6a2 1fbd 5e5f 4dbd
00000130: 7dd4 203d 4264 a03c 75c2 4a3d 9698 8dbc
00000140: 8a06 e83c bb20 4cbd 7f92 583d ce15 a2bc
00000150: de40 fd3c 08d9 ed3b fdbc 483d 07fa ecbc
00000160: 1c93 4b3c 0433 2f3c 02e8 c73c d7a3 5b3d
00000170: ff69 623d 306c 1fbc 4511 49bd c04f 353b
00000180: 478f 593d d888 993b c2a9 b53c 4236 fa3c
00000190: bb66 28bd 4289 4fbd f951 39bd 462a 0fbd
000001a0: 1969 23bd f5b4 523d 32f2 31bd 9691 fe3c
000001b0: 0956 5a3d 0674 c53c 062c 35bd 3727 44bd
000001c0: b89d 25bc a4f1 2f3c 9152 213d a085 0cbd
000001d0: 054f 4e3d 48ba a3bb 0464 f0bc 1bf7 36bd
000001e0: 503b 583b 39b0 c9bc 2001 bc3b 10b4 f6bb
000001f0: e0a4 fabc 6176 4a3d b8a8 1dbc 8d0c 243d
00000200: 93e3 513d e03e a2bc c74f 5ebd a8ce a5bb
00000210: 076b 52bd d695 a4bc 789e f53b 7df3 4e3d
00000220: 97c3 61bd 0086 ba3a fe7a 2fbd 804a 81bb
00000230: e0af 9c3b 7c10 a2bc ea22 a6bc a321 0b3d
00000240: 0ca9 0a3c b628 a7bc 424d a43c 3607 b2bc
00000250: ea84 12bd 6ecd 973c d4ea 173c 6e91 4ebd
00000260: 6c75 293c eea8 1fbd fbef 53bd acd4 1ebc
00000270: e406 4cbc 5cc1 523c 7c0c 7d3c 5dac 4b3d
00000280: fd42 c8bc e0f2 3c3b e13c 253d 86d2 9c3c
00000290: 89d5 4c3d d542 2a3d 4001 0abc 8cc9 333c
000002a0: 7853 33bc b8d9 96bc c2c6 30bd 8eca 943c
000002b0: bc57 14bd 00c0 143b 8092 d83a e0bb 4fbb
000002c0: d3ab 263d 4b65 41bd 6e21 49bd 0796 51bd
000002d0: ca75 91bc fc15 09bd f924 3d3d 3810 fc3b
000002e0: eeca 25bd 6a6d a1bc 65c1 553d c636 03bd
000002f0: 61f0 543d 38d0 84bb e065 21bb c9b8 253d
00000300: a897 eebb 2c35 343c 00b2 2d3b c4f6 7c3c
00000310: d194 0d3d 5d74 2b3d 8e15 df3c 3b26 2bbd
00000320: eafa f83c 500d 12bc 5dd9 d8bc f0ca 3cbd
00000330: 9dbe edbc dc89 783c 754e 423d 84ca 363c
00000340: 0534 493d 3170 463d f0cf dcbb b2a8 a03c
00000350: fd60 f3bc c21c 973c 09cd 57bd 82ad 9b3c
00000360: f05b e8bb 3f46 553d c0f5 b2ba 2c7a 38bc
00000370: 22d5 ba3c 73df 3f3d 18b7 a1bc 0082 0ab9
00000380: 2ecf a43c 2cbc 603c f761 1fbd ad76 313d
00000390: c846 c83b 1298 56bd b1b3 113d e098 54bd
000003a0: 2ffa 243d 4c46 21bd f0d8 cc3b bc09 1e3c
000003b0: defc 16bd 7249 fdbc e0b5 99bb c2df e73c
000003c0: 4269 d73c cb66 39bd b2c5 4fbd 48ea 893b
000003d0: a03e 92ba 24b2 77bc b05f 743b 31e8 5e3d
000003e0: 677b 163d 3104 4d3d 799d 30bd aace e63c
000003f0: 2e95 ea3c 3610 b13c 2896 9abb 0078 ebbc
-0.040237512 -0.011218131 -0.012884837 0.0016696602 0.0072033815 0.05395252 0.043219443 0.04436415
0.0353115 0.046280887 -0.010375783 0.027831975 -0.013932817 0.008949984 0.02251831 0.023523096
-0.015816465 -0.014936194 0.010591906 0.046316955 0.052484278 -0.03238941 -0.012881711 0.012234028
0.046902377 -0.0056752823 -0.03298252 -0.01532203 0.008207399 0.023859527 -0.0017100126 0.026457127
-0.050141796 0.020353649 -0.022320595 0.032675784 -0.015500393 -0.035944667 -0.03795961 0.022118289
-0.017257784 0.05175368 -0.0402804 0.043175828 -0.046868615 -0.0335173 -0.049978368 0.0065968484
0.008330744 -0.028852774 -0.0069737285 0.039826255 -0.022301242 0.05291469 -0.02829812 0.012760241
-0.015914764 -0.055115033 0.04222321 0.010541957 -0.045906946 -0.04351736 -0.041919187 -0.023011964
0.0044965744 -0.016296692 0.025805619 -0.039557084 -0.044356957 0.0358381 -0.0031556487 0.026728418
-0.052236516 0.05042657 -0.03897365 -0.050139777 0.039265145 0.019579057 0.049501855 -0.017284673
0.02832343 -0.0498359 0.052874085 -0.019785788 0.03091472 0.007258538 0.04900836 -0.028927816
0.01242521 0.010693315 0.024402622 0.053623047 0.055276867 -0.009730384 -0.049088735 0.0027665943
0.053115156 0.0046855025 0.022175673 0.03054345 -0.041113596 -0.05066801 -0.04524419 -0.034952424
-0.03989515 0.051442105 -0.043443866 0.03107528 0.053304706 0.024103176 -0.044231437 -0.04788896
-0.010108404 0.010738764 0.039385382 -0.034307122 0.050368328 -0.0049965717 -0.029344566 -0.044669252
0.0032994337 -0.024620162 0.005737439 -0.0075287893 -0.030596197 0.0494293 -0.009622745 0.04005103
0.051242422 -0.019805372 -0.0542753 -0.0050600357 -0.0513716 -0.020090979 0.0074956976 0.050525177
-0.05511817 0.0014230609 -0.042841904 -0.0039456487 0.004781708 -0.019783251 -0.02028032 0.033967625
0.0084631555 -0.020405155 0.02005637 -0.021731954 -0.035771288 0.018530574 0.009272296 -0.05043166
0.010342937 -0.038979463 -0.051742535 -0.00969426 -0.012452815 0.012863483 0.015444871 0.049724925
-0.024446005 0.0028831288 0.04034126 0.019143354 0.05000833 0.041567642 -0.00842315 0.0109733455
-0.0109451935 -0.018414363 -0.0431583 0.018162992 -0.036216483 0.0022697449 0.0016523153 -0.0031697676
0.040691208 -0.04721574 -0.049104147 -0.051168468 -0.017756362 -0.03346823 0.046177838 0.007692363
-0.040476732 -0.019705493 0.05218639 -0.032034658 0.051987056 -0.004053142 -0.0024627373 0.040459428
-0.0072812624 0.010999005 0.0026503801 0.015439693 0.03456575 0.04185902 0.027231958 -0.041784506
0.030393083 -0.008914307 -0.026470834 -0.046091974 -0.029021556 0.015169587 0.047438104 0.011156682
0.049121875 0.048446838 -0.0067386553 0.01961169 -0.029709334 0.01844633 -0.05268577 0.019003633
-0.007091038 0.052068945 -0.0013653561 -0.011259597 0.022806708 0.046843957 -0.019740626 -0.00013209134
0.020118322 0.013716739 -0.038911786 0.04332607 0.0061119534 -0.05239112 0.035571758 -0.051903605
0.040277656 -0.03937368 0.006251447 0.009645876 -0.036862247 -0.03091881 -0.0046908706 0.028304938
0.026295308 -0.045264047 -0.050725646 0.0042088367 -0.001115758 -0.015118156 0.003728848 0.054420654
0.03673878 0.050052825 -0.043118928 0.028174717 0.028635588 0.021614175 -0.004717607 -0.028743744

pre_quantum.bias f4 [4]
00000000: 1615 96bc 29e1 21bd 2d55 113d 47f3 17bd
-0.018320601 -0.03952137 0.03548162 -0.03709724

quantum_layer.weights f4 [3, 4]
00000000: f81a 6a3e 282f 6dbf 6296 d9bf a977 193f
00000010: 97c2 793f b1a5 19bf 5eee 843e c6d5 b8be
00000020: 8b6e c0bd c23a 9bbe 239b 3cbe 8e0c 773f
0.2286185 -0.9265008 -1.6999018 0.5994821 0.97562546 -0.6001845 0.2596311 -0.36100596
-0.093960844 -0.30318266 -0.18418555 0.9650353

post_quantum.weight f4 [3, 4]
00000000: ca8e 253e 39aa 88bc 49a5 abbd 30b1 5a3f
00000010: db63 523f 6de8 16bf 2995 a4be 4751 b7be
00000020: 36d8 90bf ef1c 1b3f 3817 6abe 4389 64bd
0.16167751 -0.016682731 -0.08381135 0.85426617 0.8218362 -0.58948404 -0.3214505 -0.35804197
-1.1315982 0.60591024 -0.2286042 -0.055794965

post_quantum.bias f4 [3]
00000000: db29 e43d 1b87 213d 369b 103f
0.11140796 0.039435487 0.56486833
