Quantum_Approach/kaggle/Qc_kaggle_model.pth (torch, 4564 bytes, 5 tensors)

quantum_layer.weights f4 [3, 10, 3]
00000000: 1bd5 8840 84a2 1740 916f 6f40 90a3 e43f
00000010: 885f ce3f c4bf 343f e70e 043e 0424 1240
00000020: 0bb1 86be eb45 b93f 0bf3 7c40 eb14 f13f
00000030: 9daf 9240 3b8e 803f b78c 4240 3f55 cc40
00000040: 2fb7 e23f fba9 523f 5c4e 653f e1db 7440
00000050: 9f93 ba3e 9035 1a40 c9f2 3540 b317 7c40
00000060: 57bd 5c40 1f6f b740 e987 1140 d5c1 a440
00000070: 61f4 0740 a966 a740 d3cf 8640 7a25 9d3f
00000080: e2bc ec3f 7137 0f40 794c 9040 5a37 b740
00000090: bcf9 c940 9c9d f93f 477c 6140 f5b2 bb40
000000a0: 3a12 8140 24af 3cbf d617 6b40 76c5 da40
000000b0: 3990 4a40 7fa1 3940 4bea 2040 1b8b 2e40
000000c0: 4aad 1840 be6d 9f40 0e96 4e3d 1946 0340
000000d0: 0f52 873e eba2 713f a3b6 583e e0d6 8b40
000000e0: e64f 9840 caf8 5d40 831c 4840 1ee3 a13f
000000f0: 8cbc 97be e861 b640 90aa f23e f56e 1c40
00000100: f34c 2840 023e bb40 9582 4b40 0a80 1940
00000110: b566 1c40 aeb1 6340 cb24 1040 ecfd b440
00000120: be43 0040 8a77 6740 ad58 b83e 8cdc c540
00000130: 3228 7840 518c b840 7e58 7940 6600 7940
00000140: 0a40 8240 883d b93f c17b ab40 f194 7940
00000150: 3b24 9c40 8163 cb40 cbab 1a40 1711 773f
00000160: 1540 663f 8446 3640
4.276014 2.3692942 3.7411845 1.7862415 1.6122904 0.7060511 0.1289631 2.2834482
-0.26306948 1.4474462 3.9523342 1.8834509 4.583937 1.0043405 3.0398386 6.385406
1.7712153 0.8229062 0.8957269 3.8259203 0.3644075 2.4095192 2.8429434 3.9389465
3.4490564 5.7323146 2.2739203 5.148661 2.1242907 5.2312818 4.212869 1.2277062
1.8495142 2.2377589 4.509335 5.725507 6.311735 1.9501224 3.5232103 5.8655953
4.033475 -0.73704743 3.6733298 6.836604 3.1650527 2.900482 2.5143 2.7272403
2.3855767 4.9821463 0.050436072 2.0511534 0.26429793 0.9438922 0.2116342 4.36998
4.759753 3.4683099 3.1267402 1.2647436 -0.29636037 5.6994514 0.47395754 2.4442723
2.6296966 5.8513193 3.179845 2.39844 2.4437687 3.5577197 2.2522457 5.6559963
2.0041347 3.616671 0.36005154 6.183172 3.8774533 5.7671285 3.8960261 3.8906493
4.0703173 1.4471903 5.3588567 3.8997157 4.8794227 6.3558965 2.4167354 0.9651045
0.8994153 2.848054

fc1.weight f4 [32, 10]
00000000: 0861 1b3f 4ca6 083f 403f 6a3f 73df e0be
00000010: 6d13 20bf 50e3 0c3f e86a e1be 78b2 36bf
00000020: 287b 39be 280c 14bf f622 6bbe 232b ed3d
00000030: b9d8 373e 0f04 e93d 718f 85be b31c 4b3d
00000040: 1469 6dbd 9744 823d ecec c6bd bf24 133e
00000050: 8c55 f13e 5c41 233f 289e 4c3f b4cd 34be
00000060: 35cf 7ebf 4e5e 723f e40b f4be 06ff 80bb
00000070: e0e3 5abd 7171 fbbe 149c 54bf c751 883e
00000080: 9cba 0bbf 5935 bf3e b59c 3abf 48aa 73bf
00000090: 26a0 5f3f 2f33 653e 10d1 763d b502 883e
000000a0: 3123 3cbf 1656 8bbe cb48 a1bf 1aae 9abc
000000b0: d7dc 4ebf 7a95 92bf 3cb5 163d fdb0 16be
000000c0: 534e 7cbf 8879 063d 44c2 503f 6e86 353c
000000d0: 6c5d 053f 7885 d5be 0fb9 8d3f d3ec f93e
000000e0: e93c 14bf 3a7a 79be e4a9 103e b706 6bbe
000000f0: 7534 e5be 3252 9bbf 1926 acbf e5f1 db3e
00000100: be9e 9e3f d9e2 5b3f 9de8 8c3f 9a68 953e
00000110: fd2b 473f f523 dabf 272f a0bc 0d2f 91be
00000120: dea2 b9bc 5bf6 fabd b258 353e b9d2 173e
00000130: 55ea 22bc cf21 ea3d b34f 9cbd 2a8e de3d
00000140: 4d92 f7be aa49 0dbe 6544 1fbf 09a6 3e3f
00000150: 611d 0d3f addb 13bf 66bf 763e be59 133f
00000160: 95d1 6cbe b58d 0b3f b603 203f 1112 083e
00000170: fe20 e53e 4432 32be 2761 10bf aad8 303f
00000180: 052b 93bf fabd 9dbe b689 e6be f1fa 0bbf
00000190: 7a95 07bf 1c92 353e 89e8 19bf 3947 f33e
000001a0: 78d1 77bf 204a 95bf 8d5d 653f 1537 aa3e
000001b0: 4d8f b8bd 8ff5 413e f26d 3abe 4271 73be
000001c0: 8032 d8bd c30c 203e e578 d4bd 04e2 40bd
000001d0: a4ec 503e 2925 033e b54c f53d 4c91 583e
000001e0: 2552 183e 21ae afbd 6caa a03e 5cf7 90be
000001f0: a90e f7bc 0dc2 7f3e cbab 623e 22b7 6ebd
00000200: 15a9 a73d 46fe 91be d0af c93e a78d 77be
00000210: 2441 493f c1af 02bf 8e5b 3f3f 56d1 2c3f
00000220: 2944 19bf 50c4 45be c379 283e ca4f 2dbf
00000230: 04e8 453f a34a ac3e d2ec 503f 82e8 cabe
00000240: f5ba 90be f174 013f 160d 0bbf bdbf 39be
00000250: 35ad d9be 5d43 15bf e13f f6be 7dc2 81bf
00000260: aa79 6abf ed73 ac3e 2baf da3f dfe1 36bf
00000270: e4bc 9a3f fbd1 6b3f 1b29 333f 2e4b e73d
00000280: c1b2 2bbf bee4 ac3e 9428 28bf a23b a83e
00000290: d23b 4abe b4d9 43bf 262d 003f 9fcb 2e3f
000002a0: 2550 703d a210 293f ad4a 3a3e c382 75be
000002b0: 39ba 4a3e 866d 49bd b4b7 05be 9397 3b3e
000002c0: 0b70 783e f94e 40bb 3e3b 443e 7689 2b3e
000002d0: d2c2 5d3f c07b 57be a4ab 3f3f c9c1 8ebe
000002e0: a9e5 883f 530a 1b3f 7562 26bf 4467 a6be
000002f0: bf04 903e 9259 4dbe ae6e f33e 26f3 b53f
00000300: b236 9e3f 2bf4 d63e 7686 22bf 07cd 6e3f
00000310: 5f84 37bf 881e f9be 9383 04bf d0a6 85bd
00000320: 4718 a73e f208 203f d0a0 693f fe09 8abf
00000330: e846 6cbf f5f9 4d3f 1527 72bf 82dd 64bf
00000340: c830 e6bf 2d0f 093f 1f90 053f 8536 de3e
00000350: 324e ff3e ae66 4bbe 958b 58bf 1fa2 323f
00000360: e491 60bf ef6a 4bbe 3a5c c3be 2928 1fbf
00000370: facd ddbd 741c 1b3e 437d f43d 328d a1be
00000380: b29c 353e 1ce3 8abd 8d70 1bbe 3bd0 743e
00000390: a08c b5ba e1d3 22ba f143 1c3f 8b72 8e3e
000003a0: daf0 303f a9d2 aebe 2e24 c0be 0173 873f
000003b0: 928f aebe 5997 41be f4e8 803e 43a5 1bbe
000003c0: a537 38bf c79b 8cbe 3fc4 51bf ef09 123f
000003d0: 6512 01bf 647f 5abf b526 123f 5f7e df3d
000003e0: 6b28 15be ccbe e43e b0d4 72bd 9a71 573d
000003f0: 87b9 bbbc f85f 803c 9e69 97bb deef 96be
0.6069493 0.5337875 0.9150276 -0.43920478 -0.6252964 0.5503435 -0.44026875 -0.7136607
-0.18113387 -0.5783105 -0.22962555 0.11580493 0.17953767 0.11377727 -0.26086 0.049587917
-0.05796154 0.06360739 -0.09713158 0.14369486 0.4713558 0.63771605 0.7992883 -0.17656595
-0.9953492 0.9467515 -0.47665322 -0.003936651 -0.053439975 -0.49109986 -0.83050656 0.2662489
-0.5458162 0.3734539 -0.72895366 -0.95181704 0.8735374 0.22382806 0.06025797 0.26564565
-0.734912 -0.27214116 -1.260034 -0.018881846 -0.80805725 -1.1451867 0.036793932 -0.14715953
-0.98557013 0.032830745 0.81546426 0.011079414 0.52095675 -0.4170339 1.10721 0.48813495
-0.5790544 -0.24363032 0.14127308 -0.2295178 -0.44766584 -1.2134459 -1.3449126 0.42957988
1.2392194 0.8589302 1.1008488 0.29181367 0.77801496 -1.7042223 -0.019553734 -0.2835621
-0.022660669 -0.1225402 0.17709616 0.14826478 -0.009943564 0.1143223 -0.07632389 0.108669594
-0.48353806 -0.13797632 -0.62213737 0.744721 0.55122954 -0.57757074 0.2409645 0.5755881
-0.23126824 0.545131 0.6250566 0.13288142 0.44751734 -0.17401987 -0.5639824 0.69080603
-1.1497504 -0.30809003 -0.4502694 -0.5467978 -0.5296246 0.17731518 -0.60120445 0.47515276
-0.96804 -1.1663246 0.8959587 0.3324515 -0.090117075 0.1894133 -0.18206003 -0.23773673
-0.10556507 0.15629868 -0.10374621 -0.047090545 0.20402771 0.12807144 0.11977521 0.21149176
0.14875086 -0.08578134 0.31380022 -0.2831372 -0.030158358 0.24976368 0.22135846 -0.058280118
0.08186547 -0.28514308 0.39391947 -0.2417513 0.7861502 -0.5104943 0.74749076 0.6750692
-0.5986963 -0.19313169 0.16452698 -0.67699873 0.7730715 0.33650693 0.8161136 -0.39630514
-0.28267637 0.50569063 -0.5431684 -0.18139549 -0.4251496 -0.58305913 -0.4809561 -1.0137478
-0.91591895 0.33682194 1.7084707 -0.714384 1.2088895 0.9211728 0.69984597 0.11293636
-0.6706963 0.33768266 -0.6568692 0.32857996 -0.19749382 -0.76504064 0.5006889 0.6827945
0.05867018 0.66041005 0.18192549 -0.23975663 0.19797601 -0.049176715 -0.13058358 0.1831954
0.24261491 -0.0029343946 0.19163224 0.16751656 0.866254 -0.210433 0.7487128 -0.2788222
1.0695087 0.6056263 -0.64993984 -0.3250066 0.2812862 -0.200537 0.4754538 1.4214828
1.2360442 0.4198316 -0.6348642 0.93281597 -0.7168636 -0.48656106 -0.51763266 -0.065259576
0.3263571 0.6251365 0.91261005 -1.0784299 -0.92295694 0.8045953 -0.94590884 -0.89400494
-1.7983637 0.5353878 0.52173036 0.4340097 0.49864346 -0.19863388 -0.84587985 0.6977863
-0.8772261 -0.1986501 -0.381563 -0.62170655 -0.108303025 0.15147573 0.11937954 -0.31553036
0.17735556 -0.06781599 -0.15179653 0.23907559 -0.0013851114 -0.0006211382 0.6104117 0.27821764
0.6911751 -0.34145096 -0.37527603 1.0581971 -0.3409391 -0.18905391 0.2517773 -0.15199761
-0.71959907 -0.274626 -0.8194007 0.5704641 -0.5041869 -0.8535063 0.5709031 0.10912775
-0.145662 0.44676816 -0.059284866 0.052598573 -0.022915615 0.015670761 -0.004620745 -0.2947988

fc1.bias f4 [32]
00000000: eab7 b83e 1c0a 2ebe 65de fb3e f4cf 593e
00000010: f99d 543e 007a c33e 41e2 b33e 0dec 81be
00000020: 56b4 08bd 72c7 1b3f b664 d13e 3820 92be
00000030: 39c8 16be f210 bb3e 6553 fe3e edc0 de3e
00000040: 47b1 28bd 4f2b 80be 4e99 e23e cdd5 c63e
00000050: 16b7 8dbd 7d24 e63e db14 8dbe e66f 043f
00000060: 7e4e 203e ad8a 7dbe 4198 c93e c3f4 fa3e
00000070: d9ab ad3e 1e39 e3bd ba35 32bd c97f d53e
0.36077815 -0.16996044 0.4919311 0.21270734 0.20763387 0.38179016 0.35133556 -0.25375405
-0.033375107 0.60851204 0.4089715 -0.28540206 -0.14724816 0.36536366 0.49673 0.43506566
-0.04118469 -0.25033042 0.44257587 0.38834992 -0.069196865 0.44949713 -0.27554974 0.51733243
0.15654942 -0.24759932 0.39373973 0.49014863 0.33920172 -0.110948786 -0.04350827 0.41699055

fc2.weight f4 [3, 32]
00000000: 1e81 7f3e 255f 6d3d efc0 8c3e 5a0a 1cbf
00000010: 689c 9cbf 9777 3d3f 7674 b63f d69a 9bbd
00000020: 7f1a 21bf 11f6 1e3e 40b7 17bf d612 2e3e
00000030: a80b d9bd 48cd 163f 20c1 843e c695 833e
00000040: 0bb9 34bf ec44 ac3c bc70 3d3f 354c 7fbe
00000050: 920a d5bf 5753 f43d f8a4 05be a9b1 d83e
00000060: d97d 0ebf 1cb8 753d be4e dfbe 022d 203f
00000070: a7c7 96be ad48 bdbd ef17 45bf 457a 303e
00000080: e630 24bf e112 f73b ceca 31bf b55c 123f
00000090: 8bfa 993f 9b43 fbbe 2c53 713e 620c 06be
000000a0: fb3b 363f 4c2c 08bf 9b13 0b3f 551e fc3d
000000b0: 9b2e 9bbd 93dd 03bf c134 15bf fc29 ec3e
000000c0: 7eb0 f73e 378f 0a3c 768a 15bf 8f80 74bf
000000d0: 5479 db3e d465 21bf b90d e53d dedc 17bf
000000e0: 7656 293f ed62 b13c 58c3 f13e 9f8f f6be
000000f0: dd01 143f 4cfa 44bd b2e8 1d3f 6a3b 133f
00000100: f064 4c3f 0a6e 8e3d e524 4d3f 5d5f 07bf
00000110: 7be2 02bf 22fa 083f af1b abbf 0c06 02be
00000120: 6409 c2be 6860 2a3f 34ef ddbe 4c7e cc3b
00000130: d200 80bd ba64 003f 13c0 233f 7d16 86bf
00000140: 443a 03bf 5730 2c3e 96f1 e23e 5d0e 7b3f
00000150: 7f8c e93f 6d63 323f f6ef 32be dfb3 133f
00000160: e8dc 14bf 6f2d febd 4900 42bf ab96 f53e
00000170: b3b5 1abf b160 0f3d 4b60 d7be 4ca9 5abf
0.24951598 0.057952065 0.27490947 -0.60953295 -1.2235231 0.74010605 1.4254291 -0.07597892
-0.62931055 0.15523554 -0.5926399 0.16999373 -0.105979264 0.58906984 0.25928593 0.25700206
-0.70594853 0.021028958 0.74000144 -0.24931414 -1.6643851 0.11929958 -0.13051212 0.42323044
-0.5566078 0.059990034 -0.43614763 0.62568676 -0.29449198 -0.092423774 -0.76989645 0.17234142
-0.64137113 0.0075400923 -0.6945008 0.5717271 1.2029585 -0.49075016 0.23566884 -0.13090661
0.7118527 -0.5319259 0.5432679 0.12310473 -0.07577249 -0.5150997 -0.5828362 0.46125782
0.4837684 0.008456997 -0.584144 -0.95508665 0.42866004 -0.63046 0.11184258 -0.5932139
0.66147554 0.021653617 0.47219348 -0.4815645 0.57815343 -0.048090264 0.6168319 0.57512534
0.7984152 0.06954582 0.8013442 -0.5287989 -0.5112683 0.5350667 -1.3367823 -0.12697619
-0.3789779 0.66553354 -0.4334656 0.0062406417 -0.062501565 0.50153697 0.63964957 -1.0475613
-0.5126078 0.16815315 0.4432494 0.9806879 1.8246001 0.6968296 -0.1747435 0.57696337
-0.58149576 -0.124110095 -0.75781685 0.47966513 -0.604335 0.03500432 -0.42065653 -0.85414577

fc2.bias f4 [3]
00000000: 8f35 413d 5ac0 3e3e 3763 2b3d
0.047170218 0.18628064 0.041842666
